prediction_model/claim_model.pth (torch, 14960 bytes, 5 tensors)

fc.0.weight f4 [64, 14]
000000 e2 5f 4f 3e a6 e6 85 be bf 40 3b be fa 28 bf 3b
       0.2025142 -0.26152533 -0.18286417 0.005833742
000010 e3 51 5b be 6c 1e 35 3e 7d 0b 35 bc 01 d9 4a be
       -0.21417956 0.17687386 -0.011050102 -0.19809343
000020 22 27 e1 3d 28 66 6f 3e b3 d0 2e 3e c4 35 b3 3d
       0.10993792 0.23378813 0.170718 0.08750489
000030 ac a6 cd 3d 92 ac 08 3e 66 20 17 3e 19 6e 5f 3c
       0.10041556 0.1334708 0.14758453 0.013637089
000040 3a cf f9 bd 33 fc 75 3d 11 4a b2 bd 8e 97 db bb
       -0.121977285 0.06005497 -0.08705533 -0.0067014163
000050 34 30 58 3e 35 02 8b be 24 01 b9 3d e6 69 73 3e
       0.21112138 -0.2715012 0.09033421 0.23770866
000060 e6 71 53 be 88 44 33 be 4a 36 d5 3c 1e 3d 1d be
       -0.20648918 -0.17506611 0.026026864 -0.15355346
000070 a3 ad 57 be 65 5b 0f be 78 e5 63 bb 84 30 26 be
       -0.21062331 -0.13999708 -0.0034774225 -0.16229445
000080 e0 da 54 bc bf e0 cf bc 2c a7 1a 3e 43 96 d4 bd
       -0.012991637 -0.025375722 0.15102834 -0.10380223
000090 88 8d 8d 3e 69 ad b9 bc 2a f7 5e be 42 53 7c be
       0.27647042 -0.022665696 -0.21773973 -0.24641135
0000a0 35 8c 60 be c8 8c 6b be 03 45 f1 3d 87 95 55 be
       -0.21928485 -0.23002923 0.11780741 -0.20857821
0000b0 cd ee 15 be 56 7e 96 bb 43 24 11 3e 91 78 ba 3d
       -0.14641877 -0.004592697 0.14173989 0.091050275
0000c0 79 dd 5d 3e 5c 7f 08 bd 95 0d d0 3d 2b c4 51 3e
       0.21666516 -0.033324584 0.101588406 0.20484988
0000d0 5a d5 c3 3c f0 42 95 3d 75 b0 00 3e 46 2a aa 3d
       0.023905445 0.07288158 0.12567313 0.08308844
0000e0 3a 93 c7 bd da 91 24 3e 8c c6 bd bd 38 d6 e5 bd
       -0.09744878 0.16071263 -0.092663854 -0.112224996
0000f0 ae f6 e1 3c e2 50 0a be d8 20 c3 ba db 58 39 be
       0.027583446 -0.13507417 -0.0014887108 -0.18100302
000100 e4 ee b9 3d a8 95 a1 bc a2 a3 75 3e 89 20 a0 be
       0.09078768 -0.019724682 0.23988202 -0.31274822
000110 fc 0c 89 be 04 d9 97 3e fd 10 16 be 8c f7 da bd
       -0.2676772 0.29657757 -0.14654918 -0.10691747
000120 cc 25 0f be 20 63 1c 3d 3e 4a c8 bd 1c e3 74 bd
       -0.13979262 0.03818047 -0.097797856 -0.0597869
000130 9b 27 3c bc 89 04 24 3c 81 c0 d2 3d 6f bd 6c 3e
       -0.011484052 0.010010847 0.102906235 0.23119138
000140 5c 3a f6 bd 30 90 bd 3d 7d 34 a4 3d 79 b0 1d 3e
       -0.1202285 0.09256017 0.08017824 0.1539935
000150 43 9a 69 be bc d7 cb bd 27 ae 9b bd b5 28 a0 bd
       -0.22812752 -0.099532574 -0.07601576 -0.07820264
000160 87 24 24 be b4 d7 04 be 16 40 85 be 76 85 d6 bd
       -0.16029559 -0.12972909 -0.26025456 -0.104746744
000170 d6 14 15 3e 5c 78 9a 3d a2 3f 6f 3e 85 04 96 bd
       0.1455873 0.07542488 0.23364118 -0.07325081
000180 ed 62 40 be 2b 63 06 3e 18 de 4f be df 44 4d be
       -0.18787737 0.13123767 -0.20299566 -0.20045803
000190 50 59 31 3e 5b 78 5e 3e 00 69 10 be 36 c2 55 be
       0.17319226 0.217256 -0.14102554 -0.20874867
0001a0 b9 b5 a9 bc 55 92 ae 3c c2 a5 69 3d 55 53 0c be
       -0.020716535 0.02131001 0.057042845 -0.13703664
0001b0 5d ff 27 be dc 9a f1 3d f0 b4 1f bc 6e 5e 70 3e
       -0.16406007 0.11797115 -0.009747729 0.23473522
0001c0 81 83 42 bd 1b 5a 66 3e 1e b6 e3 3d 5b 58 7f be
       -0.047488693 0.2249531 0.111187205 -0.24936049
0001d0 97 c8 1d 3e f9 cf 46 3e ba 40 47 3e 5e d4 2d be
       0.1540855 0.19415273 0.19458285 -0.16975543
0001e0 f8 9b 3f be 10 39 4e be cc 0f 89 be 09 b3 25 be
       -0.18711841 -0.20138955 -0.26769865 -0.16181578
0001f0 52 5b 57 be b4 98 7e 3e 1e 31 47 be c6 20 8b bd
       -0.2103093 0.24862939 -0.1945233 -0.067933604
000200 e6 94 1f 3e 1d 33 8e 3e 80 71 8e bd 1c 4e 54 be
       0.15584144 0.2777337 -0.06955242 -0.20732921
000210 91 8e b7 bd 22 c2 ec 3c 13 71 50 3e fb be b4 3c
       -0.08962739 0.028901163 0.20355634 0.022063723
000220 4f 15 4d 3e bc 40 0e be 70 03 3f 3e c1 97 64 3e
       0.2002766 -0.13891882 0.18653655 0.22323515
000230 7f 64 94 3d a5 73 64 be 35 e8 2d 3e 81 4c 3a 3e
       0.072457306 -0.2230974 0.16983111 0.18193246
000240 3d 2d a8 3d 52 b8 10 bd 4a 5e 1c be eb f0 90 bd
       0.082117535 -0.03533203 -0.15270343 -0.070772015
000250 0d 44 14 3e 5c 5c 73 bd df 0b 1a 3e 01 62 88 be
       0.14479084 -0.059414253 0.15043591 -0.2663727
000260 43 b4 91 be 4b 37 45 be 5d 81 0d be de 57 b3 3d
       -0.2845784 -0.19259374 -0.1381888 0.08756994
000270 9b c4 b4 3d 33 7f 3a 3e ac c3 34 bd b7 db 92 3d
       0.08826562 0.18212585 -0.04413192 0.071708135
000280 2c d7 19 3e b0 b8 62 3d 78 8d 25 3e d8 d3 3b be
       0.15023488 0.055351913 0.16167247 -0.1834253
000290 3f 95 71 3d 65 c6 cb bd ea b5 36 be 8a 00 f5 3d
       0.058980223 -0.0994995 -0.17842832 0.119629934
0002a0 45 80 01 bd f7 6f 87 3e 48 1b 45 3e a9 3c aa 3c
       -0.031616468 0.2645261 0.19248688 0.020780878
0002b0 f6 b1 35 3e de 32 3d 3d 36 f9 e3 3d 97 79 21 3e
       0.17743668 0.04619109 0.111315176 0.15769039
0002c0 4b 0c 41 be c5 09 c5 3d 2b 3a ad ba de e9 83 bd
       -0.18852346 0.09621004 -0.0013216188 -0.06441091
0002d0 97 12 32 3d cd 6c 29 3e 7b 31 12 be c6 42 94 3d
       0.04347476 0.1654541 -0.14276688 0.072392985
0002e0 68 df 0d 3d 5a 41 11 3e 54 29 92 bd 87 e5 7f 3e
       0.034636885 0.14185086 -0.07136789 0.24989901
0002f0 e2 ea 26 be fe 08 e5 3c 32 39 95 3d b7 12 5a bd
       -0.16300538 0.02795839 0.072863 -0.053240504
000300 91 bd f7 3c 97 86 1f 3e d5 aa 8b 3e 24 75 a8 bc
       0.03024176 0.15578686 0.27278772 -0.02056367
000310 9a 85 80 be 0d 8e 5f bc ad 75 5b be 28 04 43 be
       -0.2510193 -0.013644707 -0.21431608 -0.19044554
000320 e6 12 6e 3e 54 a2 89 bd 82 55 34 3c 5e 0e 24 3b
       0.23249397 -0.06720415 0.011006715 0.0025032978
000330 ef 60 5c bc 28 7e dc 3d 88 c9 cd bd 19 62 d8 3d
       -0.013450845 0.1076625 -0.10048205 0.10565586
000340 92 82 41 3e b4 44 50 3d 6c d6 90 3d a2 23 18 3e
       0.18897465 0.05084677 0.07072148 0.14857343
000350 6b c2 b6 3d 4b cb 6f bd fb 53 06 3e ef 0b ec bb
       0.08923801 -0.058543485 0.13117974 -0.007203571
000360 cd 2f db bd 86 3e 46 be 96 c3 ef bb 71 32 32 be
       -0.10702477 -0.19359788 -0.007317017 -0.17402054
000370 88 bc 24 3d 64 63 84 ba b0 3e 46 3e 7b 57 a3 be
       0.04021886 -0.0010100421 0.19359851 -0.3190268
000380 9f 26 4e 3b 4c 17 7c be 7f 73 aa 3d 5a d9 5f 3e
       0.0031456125 -0.24618262 0.083228104 0.21860257
000390 ba ea 1a 3e fc 12 5a 3d e1 ae 1b bd 60 34 b4 3d
       0.15128604 0.05324076 -0.038008574 0.08799052
0003a0 b1 6f b8 bd 44 37 75 be 18 88 82 be 6e 9f 74 3d
       -0.090056784 -0.23946863 -0.25494456 0.059722356
0003b0 0e b7 67 be 2b 62 61 3e 04 61 3f be 9b 7c 70 bd
       -0.22628424 0.22010104 -0.18689352 -0.058712583
0003c0 2d b9 45 3d 96 f1 47 3b 7e 88 88 bd 4e 46 51 be
       0.0482723 0.0030508987 -0.06666659 -0.20436975
0003d0 11 a4 63 bc 84 27 e5 bd a2 71 85 be dc cd 70 bd
       -0.013894097 -0.11189178 -0.26063257 -0.058790073
0003e0 c3 44 8d 3d 84 59 39 bb 78 8e 17 be 31 66 2b be
       0.06897881 -0.0028282115 -0.14800441 -0.16738202
0003f0 9b b9 e2 bd 2b 94 8c bd 7d b0 91 be 9a ca 06 3e
       -0.11070558 -0.06864198 -0.28454962 0.13163224

fc.0.bias f4 [64]
000000 73 7c 2a bd 23 f6 24 3e be d6 04 3e aa a4 95 3e
       -0.04162259 0.16109519 0.12972543 0.2922719
000010 a3 07 b9 3c 78 d4 89 be 91 02 59 be 52 d4 ad 3a
       0.02258665 -0.26919913 -0.21192385 0.0013262129
000020 3d 60 61 3d 19 89 e7 3d ef 46 6e be f0 15 4a 3e
       0.05502342 0.11305446 -0.23269247 0.19734931
000030 be 5e a9 3d 94 25 ae 3e bb eb 0c be 87 d7 8e 3e
       0.08270024 0.34013045 -0.13761799 0.2789881
000040 12 35 9d 3d 35 7b f3 3d e0 6f bd bd 9d 17 15 be
       0.07676138 0.11888734 -0.09249854 -0.14559789
000050 a1 13 7e be 95 ec 99 bd ad 5e 37 3e 5d 02 a1 3e
       -0.24812175 -0.075158276 0.1790721 0.31447116
000060 41 e9 02 3e b0 8f 97 b9 11 39 dc 3d 6d 0c 92 be
       0.12784292 -0.0002890802 0.10753072 -0.28525105
000070 24 bb 1e 3e cc 5b 31 3e 62 aa fe bd e7 9b a1 bd
       0.15501076 0.17320174 -0.12434842 -0.07891064
000080 78 9b 17 be 5d f3 86 3e d8 26 8c be da 1e 62 be
       -0.148054 0.26357546 -0.27373385 -0.22082081
000090 15 6e 51 3c 6f 4f 0d 3e e9 32 e3 3d 56 7d 25 be
       0.012782593 0.13799833 0.11093695 -0.16161093
0000a0 e8 9f b7 3d e5 7d e7 3d d3 39 13 be 36 d7 5d 3e
       0.089660466 0.11303309 -0.14377527 0.21664128
0000b0 4f f0 2b 3e 92 a4 ea bc 21 d6 19 be bf 67 76 3e
       0.16790889 -0.028642926 -0.1502309 0.24063013
0000c0 ff 71 73 3e 61 9b 2f bd 47 03 74 3d c3 06 4d be
       0.23773955 -0.04287279 0.059573438 -0.2002211
0000d0 96 03 db bd b2 21 a9 3c 3a f6 d3 3c 5a 6b 93 be
       -0.10694043 0.02064595 0.025874246 -0.2879284
0000e0 d6 dd 97 3e e4 19 75 bd 0e b6 24 bd d7 35 0d 3e
       0.29661435 -0.059839144 -0.040212683 0.1379007
0000f0 8b 13 8d bd 12 ab 22 3e 0c 8c 16 3e 4a 2f d1 bd
       -0.06888493 0.1588557 0.14701861 -0.10214098

fc.2.weight f4 [32, 64]
000000 8d 8a 35 bd 75 c7 97 bd 09 17 6a bd 0a 5f 9b bc
       -0.044321585 -0.0741109 -0.057150874 -0.018966217
000010 4f b1 c5 bd 0d df ba 3c bf 18 06 be 10 58 17 be
       -0.096529596 0.022811437 -0.13095377 -0.14779687
000020 14 07 23 bd 10 86 60 bc c3 00 e5 3c 6a 03 89 bd
       -0.039801672 -0.013703838 0.027954465 -0.06690104
000030 be ff f9 bd 95 d7 9a bd 67 1d aa 3c fa 78 ca bd
       -0.12206982 -0.0756065 0.020765973 -0.09886356
000040 a9 e6 b5 bc d1 79 12 bd 3e fc 9a bd 6b 51 3b bd
       -0.022204714 -0.035760704 -0.07567643 -0.045731943
000050 9d 0a e4 3c ef a2 e2 bd 85 1b 9f 3d 87 26 1c be
       0.027837092 -0.11066233 0.07768921 -0.15249072
000060 a3 39 f8 3b 33 57 60 bd 8a c8 6e 3d 42 1c 0b be
       0.00757523 -0.05477066 0.058296718 -0.13584998
000070 5e 37 0e be 81 e9 a7 bc ea 47 8c 3d 33 8e 68 bd
       -0.13888308 -0.020497086 0.06849654 -0.056776237
000080 70 21 7b bd 06 c8 3a bd 44 37 01 3d 05 3a 18 3d
       -0.061311185 -0.045600913 0.031546846 0.037164707
000090 b9 48 95 bd ac b9 c1 3d 62 e0 a3 bd 4d e7 d0 3c
       -0.07289261 0.09459242 -0.08001782 0.025500918
0000a0 1a 55 7f 3c cf 47 12 be 4b d7 2a 3d c7 d6 6c 3c
       0.015584255 -0.14285205 0.041709226 0.014455504
0000b0 cd fb a8 bd 87 7e 24 bd 0b 9f 74 bc c5 e8 92 bd
       -0.08251152 -0.04015973 -0.014930497 -0.071733035
0000c0 a5 c1 85 bc 42 8d 84 bd e4 4e b7 3d d2 f5 22 bc
       -0.016327688 -0.06472255 0.08950594 -0.009946303
0000d0 72 62 80 bd 20 27 9d 3d 50 df bc 3d 6d 57 a0 bd
       -0.06268777 0.07673478 0.09222281 -0.07829175
0000e0 13 3b 39 bd 59 91 ad 3d bf 4f 99 3d 95 e7 af 3d
       -0.045222353 0.084749885 0.074859135 0.08589093
0000f0 d4 76 a4 3d ed 75 2b 3c ed 55 01 bd d3 b2 1f bd
       0.08030477 0.010465127 -0.031576086 -0.0389889
000100 9b 7a 70 bd 3c 37 fa bb fc 50 a4 3d c2 0e dd bd
       -0.058710676 -0.007635979 0.08023259 -0.107938305
000110 2c e6 47 3c a2 fa 01 3e e9 0d 74 bc 59 76 d0 3d
       0.012200873 0.12693265 -0.014895895 0.10178823
000120 2a 01 5d 3d f3 b8 a8 3d 2c bc 2d 3e b2 3b 0d 3e
       0.05395619 0.08238401 0.16966313 0.13792303
000130 13 20 cb 3c 65 d5 f7 3d 48 8b c9 3c 94 aa 95 bc
       0.024795568 0.12101249 0.024602547 -0.018269815
000140 a7 85 a1 bd 6f a0 b0 bd b0 c1 3c 3d 5f 42 22 bd
       -0.0788682 -0.0862435 0.046083152 -0.039614078
000150 ef 91 ea 3d 00 0e 07 3d 32 76 13 3b e9 dd c4 3d
       0.11453616 0.032972336 0.002250087 0.096126385
000160 76 14 c0 3b 6d 77 cb bd a8 a1 88 3d 1e 0e e1 bd
       0.005861814 -0.09934888 0.066714585 -0.10989021
000170 ad 09 fb 3d 77 24 58 bc 04 26 1b 3d 0e 4e 5a 3d
       0.12257705 -0.013192288 0.03787805 0.053297095
000180 ce 1c 6d bd 2c 66 7f 3d 83 5b eb 3d 33 42 c6 bd
       -0.0578888 0.062353298 0.11492064 -0.09680595
000190 71 be 00 3e 53 06 32 3d f1 65 d3 bd b5 4f df bc
       0.12572648 0.043463062 -0.10322178 -0.027259687
0001a0 83 93 a1 3d 5c 9a e1 3d 2b 27 89 3d cd a5 db 3c
       0.07889464 0.1101577 0.06696924 0.026812458
0001b0 7e e3 ba 3d 08 f6 a6 3c ad a6 b9 3d b3 b3 38 3d
       0.09125422 0.020380989 0.09064994 0.04509325
0001c0 96 e0 e9 bc 83 7c ea 3c ae 21 8c bc 9c 42 bd 3d
       -0.028549474 0.028623825 -0.017105903 0.0924122
0001d0 01 e6 0e 3e ec 24 2b 3d bf ee 6d 3d a7 a3 76 3d
       0.13954927 0.04178326 0.058089014 0.060214665
0001e0 eb 35 93 3d 24 59 7c bd b3 07 66 3d e6 52 13 3e
       0.071880184 -0.06160845 0.056159686 0.14387092
0001f0 ab fb 9c 3d 60 ac 96 bd b5 b2 f5 3d a2 ae 87 3d
       0.07665189 -0.07357097 0.11996976 0.066251054
000200 79 5a e3 bd 35 3f 00 be ad 54 f9 bd 55 6b 0c 3d
       -0.11101241 -0.12524112 -0.12174354 0.034282047
000210 4e 65 36 be 1d b7 66 3d 94 40 31 be 26 e1 f4 bc
       -0.17812082 0.056326974 -0.17309791 -0.029892515
000220 f4 a6 d8 3d 95 07 8c bd ce 6d 3a be b8 a0 83 3c
       0.10578719 -0.06837384 -0.1820595 0.016067848
000230 3c a9 02 bd ea 4a fa bd 93 7d 51 3d 4f 3d 2a be
       -0.031899676 -0.1222132 0.051145148 -0.1662495
000240 62 c3 b3 3c 1b 54 a6 3d 37 7a 1f bc 30 b3 30 3e
       0.021943752 0.081215106 -0.009733728 0.17255855
000250 3a 24 99 3d 17 fc 13 bd 7b 1f a1 3c 21 3a 09 be
       0.07477613 -0.036129083 0.019668331 -0.1340108
000260 db b8 b1 3d f2 d9 76 bd 7a 73 91 bd a5 ae 98 3d
       0.086778365 -0.060266443 -0.071021035 0.07455186
000270 92 2f 6a 3c d6 7f ba 3c 35 14 2f 3e 72 3d cd bc
       0.014293568 0.022766035 0.17097552 -0.025053713
000280 74 f6 50 bd f6 90 6a 3d 21 5f f1 3d 4a 25 34 be
       -0.051016286 0.05726715 0.117857225 -0.1759235
000290 4a f7 80 be dd 34 ab bd fa c3 84 3b 55 13 f5 3d
       -0.25188667 -0.08359692 0.0040516825 0.11966578
0002a0 95 cc 7b bd 52 31 67 3d 13 54 21 be c6 42 3d 3d
       -0.0614744 0.05644352 -0.15754728 0.04620626
0002b0 76 77 17 3e 32 6d 73 3d f9 86 31 3d 48 5e bc 3d
       0.14791664 0.05943031 0.04334161 0.0919767
0002c0 6a f4 5d bd f7 e1 32 3d cc b5 5b bd 4b ae 4f 3d
       -0.05418817 0.043672528 -0.053640172 0.050703328
0002d0 f9 dc 8c bc 55 da 06 bc ad e4 a9 bd fc db 0c bc
       -0.017195212 -0.008230765 -0.082955696 -0.00859737
0002e0 3b b0 99 bd e1 01 d0 bd b3 ca ab bd 84 1c a8 ba
       -0.075043164 -0.101566084 -0.08388271 -0.0012825881
0002f0 7f 91 a4 bd 66 d3 04 bd 88 10 71 3a f8 f3 ed bc
       -0.08035564 -0.032428168 0.0009195884 -0.029046997
000300 24 b8 1f be 8f 4d 30 3d f8 10 6e 3d 4a 9e a9 bc
       -0.15597588 0.043042716 0.05812165 -0.02070536
000310 f4 b6 85 bd b0 bd 38 3d b9 db d3 3d 26 4c 8e 3d
       -0.06529036 0.045102775 0.10344643 0.06948118
000320 76 67 a7 bd c9 33 95 bd 5d 23 b5 bd 2f 2f ac 3d
       -0.081740305 -0.07285268 -0.08844636 0.08407437
000330 03 8b 45 bd 63 e9 19 bd d0 de 89 bd 0b 82 1c 3c
       -0.048228275 -0.03757609 -0.06731951 0.009552489
000340 a5 ae ac bc 75 28 94 3d 1b 29 0b 3d 3a ba bb bd
       -0.02107937 0.07234279 0.033974748 -0.09166379
000350 dd 6e 97 3b e3 13 94 bd f0 85 a1 3d 2a 0d 7a 3d
       0.00462137 -0.072303556 0.07886875 0.06104771
000360 ea d0 4d ba 37 e4 3a 3c 6c 77 29 bc 70 41 8e bb
       -0.000785126 0.01140695 -0.010343414 -0.004341297
000370 3a ef 7f 3d 66 89 f9 bd 65 65 c2 3b 33 86 80 bd
       0.062484004 -0.1218441 0.0059324973 -0.062755965
000380 5f 63 11 be b4 9d 8b 3d 04 5c 66 bd 10 85 12 be
       -0.14198063 0.06817189 -0.056240097 -0.14308572
000390 5f 5a c3 bd 9b d7 01 3d a8 5e 6f bd ed 7a da bc
       -0.09538721 0.031699758 -0.05843988 -0.026669944
0003a0 dd 77 6a bd 01 f7 01 be 02 50 d8 bd f7 fb 7c bc
       -0.057243217 -0.12691881 -0.10562135 -0.0154409325
0003b0 0f ef fe bd 47 69 18 3c a9 78 88 3d 75 d5 0f be
       -0.124479406 0.009302444 0.06663639 -0.14046271
0003c0 66 8a 1e be a0 e2 c5 bc f1 18 76 bc a3 da d4 3d
       -0.15482482 -0.024155915 -0.015020595 0.10393264
0003d0 05 13 54 bc 2f e8 5f bd 78 dc 94 3d f4 97 42 3d
       -0.012943988 -0.054664787 0.072686136 0.047508195
0003e0 ca 70 92 bc 6a a1 84 3c 41 d5 94 bd 50 03 7b 3d
       -0.017876048 0.01619025 -0.072672375 0.061282456
0003f0 db fc 82 bd 62 00 a8 3d f8 05 aa 3d 21 70 c1 bd
       -0.063958846 0.08203198 0.0830192 -0.09445215

fc.2.bias f4 [32]
000000 9a 98 e8 3c 9b e1 89 3d 09 4a 7b bd 6a 24 fc bd
       0.028393079 0.06732484 -0.061349902 -0.12311633
000010 a4 23 45 bd 8a ae 63 bd 92 f0 69 3d 08 79 13 3e
       -0.048129693 -0.055586375 0.05711419 0.14401639
000020 f5 cb a1 3d a8 81 ab 3d 10 42 61 bd fb f9 b0 3d
       0.0790023 0.08374339 -0.054994643 0.0864143
000030 e9 41 67 bd 9f 40 2d 3b 1b 3f 88 3d 34 e1 25 3e
       -0.05645934 0.0026436222 0.066526614 0.1619919
000040 61 1d 8f 3d 62 d0 1b be 2d f7 41 bd 15 41 ca bb
       0.069880255 -0.1521621 -0.047354866 -0.006172309
000050 c9 fa c6 bc d4 df 2c 3e 63 c1 d9 3c 4d e4 bd bc
       -0.024289506 0.16882259 0.026581472 -0.023180151
000060 11 31 6b 3d a4 1d 2b 3e fe c4 04 3d f0 cc 49 bd
       0.05741984 0.16710526 0.03241443 -0.04926771
000070 b4 1a 1a 3e cc f8 ec bd bb fa fa bd 22 1f 02 3d
       0.15049249 -0.11570892 -0.12254854 0.03176797

fc.4.weight f4 [1, 32]
000000 89 51 a8 bd 2b 7b 21 3d d4 b3 ec 3d a8 b8 10 be
       -0.082186766 0.039424103 0.11557737 -0.14132941
000010 3d 2e c9 bd 8e 78 fd bc 0d dd 02 bd 37 26 81 3d
       -0.098232724 -0.030941274 -0.03194909 0.06306117
000020 b3 ed fe 3d e5 bb cf 3c dd 61 ce bc 0b f9 92 bd
       0.12447681 0.02535815 -0.02519315 -0.071764074
000030 d8 d8 1f 3d 38 fd 0b be 38 db 65 bd af 58 57 3d
       0.039025158 -0.13670814 -0.056117266 0.05257481
000040 e4 01 90 bd 8b 0f cd bd 7a 0b bc 3d b6 8b dc 3d
       -0.070316106 -0.1001273 0.091818765 0.10768835
000050 72 a5 1c 3d f3 ba 81 3d a4 68 e3 3d b7 1f 92 bc
       0.03824372 0.06334486 0.11103943 -0.017837388
000060 cc f1 cb bd 97 6c 40 3e 33 8f f4 3d 35 7f a2 3c
       -0.099582285 0.18791424 0.119413756 0.019836048
000070 f3 19 6d 3d 91 a6 ee bd 03 47 1c be 9b d9 12 be
       0.057886075 -0.11652864 -0.15261464 -0.14340822
