prediction_model/risk_model.pth (torch, 15206 bytes, 6 tensors)

fc.0.weight f4 [64, 14]
0	0x3f16e3b3	0.5894119
1	0xbd575420	-0.052570462
2	0x3eb66725	0.35625568
3	0xbf0d7f9a	-0.5527283
4	0x3c49f247	0.01232583
5	0x3d0fd391	0.035113875
6	0xbcb71eaf	-0.022353498
7	0x3d752171	0.059846345
8	0xbdaf9779	-0.08573813
9	0xbd80133d	-0.062536694
10	0xbd7e5a63	-0.06209792
11	0x3d790d6c	0.060803816
12	0x3d01536b	0.031573694
13	0xbca216b1	-0.01978621
14	0x3eda7bc7	0.4267256
15	0xbd3f108c	-0.04664664
16	0x3d74e82b	0.059791725
17	0xbeb3d585	-0.3512384
18	0x3dd0cb79	0.10195059
19	0xbdeb12c7	-0.11478191
20	0x3e552f7d	0.20818897
21	0xbe36d0c5	-0.17853077
22	0x3e1d77c2	0.15377715
23	0x3d954c1f	0.072899096
24	0x3cfb2a4a	0.030659813
25	0xbe343806	-0.17599496
26	0xbd199903	-0.03749944
27	0xbd26851a	-0.04065428
28	0x3dfe7de8	0.124263585
29	0x3c2efafe	0.010679958
30	0x3e9e52b6	0.30922478
31	0x3c7a2f13	0.015270012
32	0xbde98e7e	-0.11404131
33	0x3e27142b	0.16316287
34	0xbe4fcca4	-0.20292908
35	0xbe4d8c98	-0.20073164
36	0x3cc92aeb	0.024556598
37	0x3e3be795	0.1835006
38	0x3e0f4ec8	0.13994896
39	0x3daf7701	0.0856762
40	0x3e325c2b	0.17417972
41	0xbe7384cd	-0.23781128
42	0x3d9e8745	0.07740644
43	0x3e9dc738	0.30816054
44	0x3e8333bb	0.25625405
45	0x3ed66099	0.41870573
46	0x3e46d400	0.19416809
47	0x3e615a1b	0.22007029
48	0xbdca691a	-0.09883328
49	0x3e572525	0.21010263
50	0x3d7c6b46	0.06162574
51	0x3e6d58b0	0.23178363
52	0xbd1ec17c	-0.03875874
53	0xbd9ad953	-0.075609826
54	0x3dddc3e4	0.10828379
55	0x3cf0f68c	0.029414438
56	0xbe3f07a5	-0.1865526
57	0xbe10c7b9	-0.14138688
58	0xbf064142	-0.52443326
59	0x3f00b1c9	0.5027128
60	0x3d07a9f9	0.033121083
61	0x3b3428ad	0.0027490065
62	0x3d57d3f7	0.05269238
63	0xbe0b2040	-0.13586521
64	0xbde7b7df	-0.113143675
65	0x3c956328	0.018235758
66	0x3d7f576c	0.06233923
67	0x3da11463	0.078652166
68	0xbe0832e4	-0.13300663
69	0x3e47bd24	0.19505745
70	0x3d1a0689	0.03760389
71	0xbe03a038	-0.12854087
72	0xbe902cb6	-0.28159112
73	0xbecd455e	-0.40091985
74	0xbca1da63	-0.019757455
75	0x3e6e22ba	0.23255435
76	0xbdf6301f	-0.12020897
77	0xbe27ea11	-0.16397883
78	0xbd898a5f	-0.06715845
79	0x3d54d787	0.051963355
80	0xbda99c79	-0.08281798
81	0x3e508255	0.20362218
82	0x3df4d90b	0.1195546
83	0x3bb7b0cf	0.005605794
84	0x3e9dc2fe	0.3081283
85	0x3ce905e6	0.028445195
86	0xbeb78837	-0.3584611
87	0x3f121fff	0.5708007
88	0x3ad91f33	0.0016565084
89	0x3db90852	0.0903479
90	0x3d9cad20	0.076502085
91	0xbc28c078	-0.010299794
92	0x3e0888d7	0.1333345
93	0xbcaae9ab	-0.020863375
94	0x3d71a605	0.05899622
95	0x3dfdf57a	0.124003366
96	0x3da9a41a	0.08283253
97	0xbd86d1c8	-0.06582981
98	0xbe217e06	-0.1577073
99	0x3e23fa63	0.16013484
100	0xbf0a3291	-0.5398341
101	0x3e7d3484	0.24727064
102	0xbe03e402	-0.12879947
103	0xbd43ad87	-0.04777291
104	0xbe51fc45	-0.2050639
105	0x3e5bc365	0.21461256
106	0xbe01c579	-0.12672986
107	0x3da56a58	0.08076924
108	0xbe9bbc62	-0.30417162
109	0xbd719f0e	-0.058989577
110	0x3e1997d4	0.14999324
111	0xbe0d7f7b	-0.13818161
112	0x3f2c0512	0.67195237
113	0x3e2d484d	0.16922112
114	0xbdda1bcc	-0.10649833
115	0x3e87a239	0.26490954
116	0x3c401306	0.011723286
117	0x3c87d2f0	0.016580075
118	0xbe6553f7	-0.22395311
119	0x3d8548c1	0.06508017
120	0x3e6c3c17	0.23069797
121	0xbb198fbb	-0.0023431617
122	0x3d45d972	0.048303075
123	0x3e394be2	0.18095353
124	0xbcb1f63a	-0.021723855
125	0xbd8522b0	-0.06500757
126	0xbef19ae4	-0.47188485
127	0xbd02b5be	-0.031911604
128	0xbec35a41	-0.38154796
129	0x3f0d3e99	0.5517364
130	0xbccd2823	-0.025043553
131	0xbd406bd3	-0.04697783
132	0xbdd26b64	-0.102743894
133	0x3d5d201f	0.05398571
134	0x3c19f72a	0.009397307
135	0x3c094a6a	0.008379558
136	0x3ca6a78c	0.020343564
137	0x3db09503	0.08622172
138	0x3d0674b6	0.032826148
139	0x3d4d3ba7	0.050105717
140	0xbe02c09b	-0.12768786
141	0xbe0f1369	-0.13972248
142	0xbe837b31	-0.25679925
143	0xbd3ed57c	-0.046590313
144	0xbe4be3f3	-0.19911174
145	0xbd64656d	-0.05576079
146	0x3d935d1a	0.07195492
147	0x3e6083dd	0.21925302
148	0x3e8b4f6f	0.2720904
149	0x3d9d7464	0.076882154
150	0xbe3efd2b	-0.18651263
151	0x3e0eec3f	0.13957308
152	0xbe675bb7	-0.2259358
153	0x3e0bb906	0.136448
154	0xbeed96ff	-0.46404263
155	0x3e102d29	0.14079727
156	0xbef7f0ed	-0.48426
157	0x3eb6e9c0	0.35725212
158	0x3d64d029	0.05586258
159	0x3db104e1	0.08643509
160	0x3dd17db8	0.10229057
161	0xbe3fbffc	-0.1872558
162	0x3c568d38	0.013095193
163	0x3ddd823e	0.10815857
164	0xbd816bd7	-0.06319397
165	0x3dfbabe5	0.12288646
166	0xbd289ec7	-0.041167047
167	0xbd40aeb7	-0.04704162
168	0x3e9f8779	0.31158045
169	0xbe913315	-0.28359285
170	0x3ed4edd0	0.41587687
171	0xbe2506cd	-0.16115876
172	0x3e09c61e	0.13454482
173	0x3c92d175	0.017922143
174	0x3e4eb068	0.20184481
175	0xbc143654	-0.009046156
176	0xbe24b5fa	-0.16085044
177	0xbdc13ab9	-0.094350286
178	0x3d8e8a98	0.069600284
179	0xbea210b7	-0.31653377
180	0x3e11271e	0.14175078
181	0x3e1e7311	0.15473582
182	0x3c2fdbae	0.010733528
183	0xbe7129a4	-0.23551041
184	0xbe1b5a27	-0.15171109
185	0xbe185ccc	-0.14879149
186	0xbd10eafc	-0.03538035
187	0x3e7f7f4c	0.24950904
188	0xbcd5c6b8	-0.026095733
189	0x3ddaa418	0.1067583
190	0x3dcb12b2	0.09915675
191	0xbe31bb56	-0.17356619
192	0x3e1ca386	0.15296754
193	0x3e81bbf1	0.253387
194	0xbe200e83	-0.15630536
195	0xbd9261a1	-0.071475275
196	0x3da57c6d	0.08080373
197	0x3cfd6f15	0.030936757
198	0xbee76647	-0.4519522
199	0xbf11174e	-0.56676185
200	0x3cc66088	0.024215952
201	0xbd4edb35	-0.05050202
202	0x3e00a2b7	0.12562071
203	0xbe0103fa	-0.12599173
204	0xbccfdc8b	-0.025373718
205	0x3c88307d	0.016624684
206	0xbae0ffb4	-0.0017166049
207	0xbd4f63fd	-0.050632466
208	0xbd852ac0	-0.065022945
209	0x3e176e9b	0.14788286
210	0xbf276632	-0.6539031
211	0xbd522cd3	-0.05131228
212	0x3dcfc6ab	0.10145315
213	0x3e0efa61	0.139627
214	0xbd50d891	-0.050987784
215	0x3dbf7eea	0.09350379
216	0x3d354013	0.04425056
217	0xbdc7f411	-0.09763349
218	0xbdc9cbf0	-0.09853351
219	0xbdf103c2	-0.11768295
220	0x3ca33d7c	0.019926779
221	0xbddc11ac	-0.10745558
222	0x3dc78993	0.09743037
223	0x3c9d07e4	0.019168802
224	0x3e799fca	0.24377361
225	0xbe0989f5	-0.13431533
226	0xbe490a3a	-0.19632807
227	0x3f1d48e2	0.61439335
228	0xbdd2dcb2	-0.102960005
229	0xbdc72904	-0.0972462
230	0xbdb7d3df	-0.08975958
231	0xbe1c2463	-0.15248255
232	0xbd8ebfd4	-0.06970182
233	0xbe4b3c22	-0.19847158
234	0xbe3bcd77	-0.18340097
235	0xbe90c0f3	-0.2827221
236	0xbe4f5abd	-0.20249458
237	0xbcd1bb91	-0.025602134
238	0x3e00fd93	0.12596731
239	0xbb1431a8	-0.0022612605
240	0xbe9d5c22	-0.30734354
241	0xbea5bb02	-0.32369238
242	0x3e1a5d52	0.15074661
243	0x3db35dbf	0.08758115
244	0x3b90a143	0.004413755
245	0x3e6c66d2	0.23086098
246	0xbe38fab5	-0.18064387
247	0xbdd14e08	-0.102199614
248	0x3e7f5bd9	0.24937381
249	0xbe9bae0b	-0.30406222
250	0x3e0c507b	0.13702576
251	0x3e774386	0.24146852
252	0xbe3ca929	-0.18423904
253	0xbd9dc49a	-0.077035144
254	0xbe4cdb3b	-0.20005505
255	0xbe9ca3b0	-0.30593634

fc.0.bias f4 [64]
0	0x3c955238	0.018227682
1	0x3e5ca13e	0.21545884
2	0x3e918185	0.28419128
3	0xbe353f5e	-0.17699954
4	0x3dd8e143	0.1058984
5	0x3eb5a8b0	0.3548026
6	0x3ebce749	0.36895207
7	0x3d74eb94	0.059794977
8	0x3e26f2c9	0.16303553
9	0x3d93bf92	0.072142735
10	0xbc7de0e8	-0.015495516
11	0x3e770399	0.24122466
12	0x3c4bc7db	0.012437786
13	0xbdf7230b	-0.12067231
14	0x3e9bc6a1	0.3042498
15	0x3ec18100	0.37793732
16	0x3e231925	0.1592756
17	0x3e0c4f90	0.13702226
18	0xbe06e925	-0.13174875
19	0xbd07ced8	-0.033156246
20	0x3d07a4bc	0.033116087
21	0xbcd38f3d	-0.025825137
22	0x3e1a9487	0.15095721
23	0x3e8b394c	0.27192152
24	0x3e935645	0.28776756
25	0x3e4f5941	0.20248891
26	0x3d55dcfb	0.052212697
27	0x3e1b30c8	0.15155327
28	0x3e88e3ec	0.2673639
29	0x3ea4c938	0.32184768
30	0xbca6b204	-0.020348556
31	0x3e0dee5c	0.13860458
32	0x3e1c2ee4	0.15252262
33	0xbe3cb2de	-0.18427607
34	0x3e8ecc21	0.27890113
35	0xbce05be0	-0.02738756
36	0x3e388222	0.18018392
37	0xbdffddae	-0.12493454
38	0x3e05d2d3	0.13068704
39	0xbcf20724	-0.02954442
40	0xbe1e5872	-0.15463427
41	0xbd5ae7d9	-0.053443763
42	0xbdcfae62	-0.10140683
43	0x3ea9b0ae	0.33142608
44	0xbdfcab9a	-0.12337418
45	0xbd5b61a1	-0.053559903
46	0x3e7e32b2	0.24824026
47	0xbdda69ea	-0.10664733
48	0x3d94c33c	0.072638005
49	0x3e3f3fb1	0.1867664
50	0x3e8c0113	0.2734457
51	0xbc909589	-0.017649429
52	0x3d2c153d	0.042012442
53	0x3dc5bbb3	0.096549414
54	0xbaa90b44	-0.0012897034
55	0x3c173829	0.009229698
56	0x3e55f331	0.20893551
57	0x3d2bb4c9	0.041920457
58	0x3e88d26e	0.26723045
59	0x3df9aa1c	0.12190649
60	0x3e07c447	0.13258468
61	0x3e54a142	0.2076464
62	0xbdcd3717	-0.10020273
63	0x3ea295d1	0.31754926

fc.2.weight f4 [32, 64]
0	0xbe943bd4	-0.28951895
1	0xbdef4466	-0.11682968
2	0x3d5b802c	0.05358903
3	0x3e29c2b4	0.1657818
4	0xbdd7de0f	-0.10540401
5	0x3dd0a09a	0.10186882
6	0x3e0aa3cd	0.13539048
7	0x3ca20ac3	0.019780522
8	0x3e73d540	0.23811817
9	0xbe92bafe	-0.2865829
10	0xbd05c2ac	-0.032656357
11	0xbda64ffc	-0.081207246
12	0xbd263686	-0.04057934
13	0xbd56e2c3	-0.05246235
14	0x3e3e635b	0.18592589
15	0x3d963999	0.07335205
16	0x3e867e03	0.26268014
17	0x3e383245	0.17987926
18	0x3d5f2191	0.05447537
19	0xbdd3933e	-0.103308186
20	0x3cab048a	0.020876188
21	0x3d53e8ee	0.05173581
22	0x3e848a1b	0.25886616
23	0x3e5b580e	0.21420309
24	0x3e1177d4	0.14205867
25	0xbd3220c8	-0.043488294
26	0xbd91be00	-0.07116318
27	0x3e7fdef6	0.24987397
28	0x3e2d3750	0.16915631
29	0x3dbb4d5f	0.09145617
30	0x3dd366b5	0.10322324
31	0xbbe23636	-0.006903435
32	0xbcd5efad	-0.026115263
33	0x3ec2b97f	0.38032147
34	0x3db254c1	0.08707572
35	0x3d30136f	0.042987283
36	0xbde159af	-0.11003434
37	0xbe0fdfe1	-0.14050247
38	0x3e6acc6f	0.22929548
39	0xbe2b77e2	-0.1674495
40	0xbd88963b	-0.06669279
41	0x3e0d8b70	0.13822722
42	0xbd89084f	-0.06691038
43	0x3e8f04c9	0.27933338
44	0xbe01c582	-0.12673
45	0x3e3c9a78	0.184183
46	0x3d941727	0.072309785
47	0x3d3df29b	0.046373945
48	0x3e20df6b	0.15710227
49	0x3e38aac5	0.18033893
50	0xbcdb877d	-0.026798004
51	0x3debdd81	0.11516858
52	0x3d7520fe	0.059845917
53	0xbe3bdc81	-0.18345834
54	0x3e7f3cd8	0.24925554
55	0xbe760f36	-0.2402924
56	0x3dc4e218	0.096134365
57	0xbe301452	-0.17195252
58	0x3e039b5a	0.1285223
59	0x3e337321	0.17524387
60	0x3df38def	0.11892306
61	0x3e38f282	0.1806126
62	0x3e443d98	0.19164121
63	0x3d9f07b5	0.07765142
64	0xbe05227e	-0.13001439
65	0xbe06efef	-0.13177465
66	0xbdbc7f66	-0.09203987
67	0xbe18c01f	-0.14917038
68	0x3e347cd8	0.17625749
69	0xbe523712	-0.2052882
70	0x3e63b60a	0.22237411
71	0x3e23e391	0.16004778
72	0x3d042e4e	0.032270722
73	0x3eb8efe6	0.36120528
74	0x3cf085b7	0.029360635
75	0x3e54cca7	0.20781194
76	0xbe4e77a0	-0.20162821
77	0xbdb0c480	-0.086312294
78	0xbe91b0cf	-0.28455207
79	0xbe1293f0	-0.14314246
80	0x3d83d850	0.06437743
81	0x3c127ea6	0.008941328
82	0xbd520a79	-0.05127952
83	0x3e618830	0.22024608
84	0xbcde173d	-0.02711069
85	0xbdf7b726	-0.1209548
86	0xbe00cb98	-0.12577665
87	0xbe5ef90a	-0.21774688
88	0x3d68bebb	0.05682252
89	0xbd14d643	-0.03633715
90	0xbe1bdcd5	-0.1522096
91	0xbd919851	-0.0710913
92	0xbe18a69e	-0.1490731
93	0xbe91a891	-0.28448918
94	0xbe09e9ab	-0.13468044
95	0x3c034398	0.008011721
96	0xbe0bd40c	-0.13655108
97	0xbe7848de	-0.24246547
98	0x3e622c09	0.2208711
99	0x3d42c728	0.04755321
100	0xbd974ad0	-0.07387316
101	0xbe0f1f7a	-0.13976851
102	0xbe42e754	-0.19033557
103	0x3d8180b2	0.06323375
104	0xbc1fc8d5	-0.009752472
105	0x3c9b100e	0.018928554
106	0xbe743e05	-0.23851784
107	0xbd1bd44b	-0.038044255
108	0x3cca1973	0.024670338
109	0x3d32a247	0.04361179
110	0xbdbb9c42	-0.09160663
111	0xbd0d8966	-0.03455486
112	0x3e03b198	0.12860715
113	0x3ddbb93f	0.10728692
114	0xbe4bcfe1	-0.19903518
115	0xbe1dd694	-0.15413886
116	0xbdb774d8	-0.08957833
117	0xbe0db1fc	-0.13837427
118	0x3d60d2a1	0.05488837
119	0x3e08a1fb	0.1334304
120	0xbe024838	-0.12722862
121	0x3e7e0ec6	0.24810323
122	0xbca2fe27	-0.01989658
123	0xbd1b5c5b	-0.037929874
124	0x3e418a45	0.18900402
125	0xbd9cbbff	-0.07653045
126	0xbe06ba39	-0.13156976
127	0xbe38c1f7	-0.18042742
128	0xbe96c51e	-0.29447263
129	0xbe3c5240	-0.18390751
130	0x3cbc7698	0.023005769
131	0x3d8119c8	0.063037455
132	0x3dbcb2b0	0.092137694
133	0xbe25ceeb	-0.16192214
134	0x3b3aa49c	0.0028479462
135	0xbe7f135b	-0.24909727
136	0x3e0c4f50	0.1370213
137	0xbe962d09	-0.29331234
138	0x3dada996	0.084796116
139	0xbe0a5100	-0.13507462
140	0x3dbcfde5	0.09228114
141	0xbd513e9e	-0.051085107
142	0xbe99b8fb	-0.3002394
143	0x3d659063	0.0560459
144	0x3df8b13a	0.12143178
145	0xbda07ab5	-0.078359045
146	0xbc7e8d52	-0.015536623
147	0xbe00a311	-0.12562205
148	0x3ca5a6d3	0.02022115
149	0xbd809045	-0.06277517
150	0x3e9f4dd8	0.31114078
151	0x3e05a2ce	0.13050386
152	0x3e12a096	0.14319071
153	0xbd9d2d9c	-0.07674715
154	0xbe09c797	-0.13455044
155	0x3e25911d	0.16168638
156	0x3d3ef733	0.046622466
157	0x3d23156c	0.03981535
158	0xbe543f2e	-0.20727226
159	0xbea0a814	-0.31378233
160	0x3e2f45fb	0.17116539
161	0x3ea8800a	0.32910186
162	0xbe6a6a97	-0.22892223
163	0xbd6c26cb	-0.057654183
164	0x3d2dfcc9	0.042477403
165	0x3c76107f	0.015018581
166	0x3dcfd61b	0.10148259
167	0xbe0a5f74	-0.13512975
168	0x3beb2a61	0.007176683
169	0x3e40a9e7	0.18814813
170	0x3d5f7c6a	0.05456201
171	0x3dff0862	0.12452771
172	0xbdcf7747	-0.10130172
173	0xbdee695d	-0.1164119
174	0x3d3f7480	0.046741962
175	0xbc5689ac	-0.013094347
176	0xbddd28cb	-0.10798796
177	0xbd0daf3d	-0.03459095
178	0x3d0f7510	0.03502375
179	0x3e2b51b9	0.16730393
180	0xbd9894e1	-0.074502714
181	0xbdfc48fe	-0.1231861
182	0x3da6ebc7	0.0815044
183	0xbe42ee7a	-0.19036284
184	0xbe26c8b8	-0.16287506
185	0xbed66fa4	-0.4188205
186	0x3e3087ce	0.17239305
187	0xbe6e8f69	-0.23296894
188	0x3e35166e	0.17684337
189	0x3e530e10	0.20610833
190	0x3e14dd22	0.1453748
191	0x3e09856d	0.13429804
192	0xbd6719f7	-0.056421246
193	0x3e0a0f32	0.13482359
194	0x3c1d5947	0.009603805
195	0xbd1d66fa	-0.038428284
196	0xbd1da49e	-0.03848707
197	0x3e130ac1	0.14359571
198	0x3e2a812e	0.1665084
199	0x3d0bf489	0.034168754
200	0x3d9b055b	0.07569381
201	0x3d736c7b	0.059429627
202	0x3d4afa2c	0.04955499
203	0x3dad64c6	0.08466487
204	0xbcfb0528	-0.030642107
205	0x3d90964d	0.070599176
206	0x3e00ebf3	0.12590007
207	0x3dea8ecc	0.114530176
208	0x3ce3f32a	0.02782591
209	0x3d92a1c4	0.071597606
210	0x3e0c49b1	0.13699986
211	0xbd8a0b9e	-0.06740497
212	0xbd372c88	-0.044720203
213	0x3e274460	0.16334677
214	0x3c5ff333	0.013668823
215	0x3d1aebe7	0.03782263
216	0xbc42fff7	-0.011901847
217	0xba1f44ac	-0.00060756016
218	0xbe07403f	-0.13208102
219	0xbd21d76c	-0.039512083
220	0xbdc110bb	-0.09427019
221	0x3e336aeb	0.17521255
222	0xbd15aef6	-0.03654381
223	0x3e5dc95d	0.21658845
224	0xbe4c63a1	-0.1995988
225	0x3dcefa01	0.10106278
226	0x3e29bd33	0.1657608
227	0x3da57ff8	0.08081049
228	0xbe35dcf8	-0.17760074
229	0xbe486e6b	-0.19573371
230	0x3d050a02	0.032480247
231	0xbcec1356	-0.028817814
232	0xbd9cbded	-0.07653413
233	0xbe403fa8	-0.18774283
234	0x3d8188e3	0.06324937
235	0xbd74bdf9	-0.059751485
236	0xbe22f528	-0.15913832
237	0x3e3e5825	0.18588312
238	0xbd53da62	-0.051721938
239	0xbda88cf2	-0.08230008
240	0x3cbdba20	0.02316004
241	0x3afc8e09	0.0019268404
242	0x3de337a6	0.110945985
243	0x3e507975	0.20358832
244	0x3e5cc090	0.21557832
245	0xbe1351d0	-0.14386678
246	0xbd0ffb51	-0.035151783
247	0x3d51940b	0.051166575
248	0x3e18bbaf	0.14915346
249	0xbbdc7cd5	-0.0067287483
250	0xbdf6359a	-0.120219424
251	0x3dac5128	0.08413917
252	0xbd032ff2	-0.032028146
253	0x3b811a8b	0.0039399317
254	0xbd88ddae	-0.06682907
255	0xbd103f2d	-0.0352165

fc.2.bias f4 [32]
0	0x3ce774c6	0.028253924
1	0xbe19d86b	-0.15023963
2	0x3e28a586	0.16469392
3	0x3e15f0f2	0.14642695
4	0xbd87370b	-0.066022955
5	0xbd3a4c8c	-0.045483157
6	0x3ceffd63	0.029295629
7	0x3e1d1e01	0.15343477
8	0x3df46a1f	0.119343035
9	0x3dbd7e50	0.09252608
10	0x3df5c377	0.120001726
11	0x3dd41861	0.103562124
12	0x3e206cce	0.15666506
13	0x3ddfd1a2	0.10928656
14	0xbaef3648	-0.001825043
15	0x3d8e2f29	0.06942589
16	0xbd5156ad	-0.05110805
17	0x3dfd1d30	0.12359083
18	0x3c3c8054	0.011505205
19	0x3d6d983b	0.058006506
20	0xbca33e25	-0.019927094
21	0x3e29a75d	0.1656775
22	0x3c64465a	0.013932789
23	0x3da29262	0.079380766
24	0x3da27b56	0.07933681
25	0x3ca1cfa0	0.019752324
26	0x3e33c332	0.1755493
27	0xbda0f385	-0.07858948
28	0x3cf92566	0.03041334
29	0xbca4215b	-0.020035436
30	0x3df9cb8c	0.121970266
31	0x3e0fec15	0.14054902

fc.4.weight f4 [3, 32]
0	0x3e8d2471	0.27566865
1	0xbed0796a	-0.40717632
2	0xbc50fe7d	-0.012755987
3	0x3e894362	0.26809222
4	0x3e68190c	0.22665805
5	0x3d819012	0.06326307
6	0xbde3fd70	-0.11132324
7	0xbe64f50e	-0.22359106
8	0xbddc637d	-0.107611634
9	0xbb264576	-0.0025370992
10	0xbd394cf4	-0.045239404
11	0x3d49bbb3	0.04925127
12	0xbebc75c5	-0.368086
13	0x3c828ac3	0.015935307
14	0x3e2792eb	0.16364639
15	0xbe51f803	-0.20504765
16	0xbe659300	-0.22419357
17	0xbdf4e1ad	-0.11957107
18	0xbe65aac8	-0.22428429
19	0x3ebec73f	0.37261388
20	0xbdae18e0	-0.08500838
21	0x3e9f011a	0.31055528
22	0xbe6a567b	-0.22884552
23	0x3e99771c	0.29973686
24	0xbe9bbfb3	-0.30419692
25	0xbdd0f99e	-0.10203861
26	0xbe3406fd	-0.17580791
27	0x3e08e292	0.1336768
28	0xbea58a4d	-0.32332078
29	0xbdd4696a	-0.10371669
30	0x3ea10429	0.31448486
31	0xbe07ddc2	-0.13268188
32	0x3ee34051	0.44385007
33	0xbd2abc84	-0.04168369
34	0x3ec6b118	0.38806987
35	0xbddbbbc5	-0.107291736
36	0xbea7e4f4	-0.32791865
37	0x3eb92c7d	0.36166754
38	0xbed276d8	-0.41106296
39	0x3d8cf28f	0.06882202
40	0x3df5c509	0.12000472
41	0x3e3c4425	0.1838537
42	0x3ea9a827	0.33136103
43	0xbed381d7	-0.41309997
44	0x3d8d9c0c	0.06914529
45	0xbebb59b8	-0.36591887
46	0xbef7799a	-0.48334962
47	0xbe1edc9f	-0.15513848
48	0xbb99c4cb	-0.004692649
49	0x3eac48a0	0.33649158
50	0x3e48ae05	0.19597633
51	0xbe40bd48	-0.18822205
52	0x3eaf67ed	0.34258977
53	0xbe6d9a9c	-0.2320351
54	0x3cf7eaa1	0.030263247
55	0xbe1019af	-0.14072298
56	0xbef6388d	-0.4809002
57	0x3db59db4	0.0886797
58	0x3ed80723	0.42192945
59	0x3ec42772	0.38311344
60	0xbf1f021f	-0.6211261
61	0xbea18046	-0.31543177
62	0xbe7376f2	-0.23775843
63	0x3e35fb0a	0.17771545
64	0xbf04f283	-0.51932544
65	0x3f0cb1b9	0.54958683
66	0xbde7fe7f	-0.11327838
67	0xbd1186d8	-0.035528988
68	0xbe210d15	-0.15727647
69	0x3c843bfa	0.01614188
70	0x3da60e36	0.08108179
71	0x3e7a658a	0.24452797
72	0xbe452aac	-0.1925456
73	0x3e30e190	0.17273545
74	0xbe1f1e21	-0.15538837
75	0x3e92b7ba	0.28655797
76	0x3e70967a	0.23494902
77	0x3b5bc168	0.0033532027
78	0x3e0beedc	0.13665336
79	0x3e25254d	0.1612751
80	0x3e62996d	0.2212884
81	0xbe3b71db	-0.18305151
82	0xbe1689a5	-0.14700945
83	0xbe5a1ac9	-0.2129928
84	0xbda0bb37	-0.078482084
85	0xbe7ab814	-0.24484283
86	0x3d0e61c1	0.034761194
87	0x3da45cfb	0.08025547
88	0x3edf3493	0.43594798
89	0x3e4d4e43	0.20049386
90	0xbec3aebf	-0.38219258
91	0xbefce12a	-0.49390537
92	0x3f15cffa	0.5852047
93	0x3e84b030	0.2591567
94	0xbe97fce6	-0.29685134
95	0xbe924205	-0.28565994

fc.4.bias f4 [3]
0	0x3e419d7d	0.18907733
1	0x3db561b0	0.08856523
2	0xbdb13153	-0.08651986
