prediction_model/risk_model.pth (torch, 15206 bytes, 6 tensors)

fc.0.weight f4 [64, 14]
000000 f8 52 0e bf 98 12 dd 3d 8c b7 24 3e 50 f2 a5 be
       -0.5559535 0.10794562 0.16085643 -0.32411432
000010 f3 9a a1 bd c8 2b 47 be b1 ae 27 be e7 7c 04 3e
       -0.07890882 -0.19450295 -0.16375233 0.12938271
000020 27 4a 43 3d 1d 69 3a be d5 c0 83 be e2 8b 5b be
       0.04767814 -0.1820416 -0.25733057 -0.2144008
000030 7a c4 c9 3d de f2 6b bc 44 02 54 bd 1d e1 64 3d
       0.09851928 -0.014401166 -0.051759973 0.055878747
000040 43 65 e3 bd 28 d3 26 3f be d3 e0 3d 4d d5 94 bd
       -0.111032985 0.6516595 0.109778866 -0.072672464
000050 fa 37 b0 bd dd b1 1b 3c 9e 91 45 be 44 5b 65 3d
       -0.08604427 0.009502855 -0.1929383 0.05599524
000060 1a 9c 4a be 26 81 18 bd 09 c3 7f bd 0d 7a fe bd
       -0.1978611 -0.03723254 -0.06244186 -0.12425623
000070 e7 d3 be be a3 d9 c8 3d da be 06 bf 15 ac b4 3e
       -0.37271044 0.09807136 -0.52634966 0.35287538
000080 03 e7 93 3c c9 51 e2 bc fc aa 4b be 42 03 36 3e
       0.01805449 -0.027626889 -0.19889444 0.1777468
000090 99 f8 0b 3e 51 ba 18 bd 74 b1 56 3d ae 51 90 3d
       0.13669051 -0.03728706 0.052415326 0.07046829
0000a0 dd d6 f1 bc 4a b0 b1 bd 13 01 16 3f c0 e2 09 be
       -0.0295214 -0.086762026 0.5859539 -0.13465405
0000b0 ec 78 8a 3e f7 e1 ee be fb fa 25 bd 45 fc 9d 3d
       0.2704538 -0.46656772 -0.040522557 0.07714132
0000c0 21 99 ec 3c 1c 5c 36 3e 2c fb e3 bc bd f8 8b 3d
       0.028881611 0.17808574 -0.027829729 0.068345524
0000d0 74 3d 90 3c 1c c1 c6 bd d4 0e a0 bd 02 8f bf 3d
       0.017607428 -0.097048014 -0.07815328 0.093534485
0000e0 1e 75 e6 be a5 00 f7 bd 10 91 96 3e 32 84 92 bd
       -0.45011228 -0.1206067 0.2940755 -0.071541205
0000f0 0e 4f b3 bd cd 87 07 3e a4 7a 84 3e 99 c8 32 be
       -0.08755313 0.13235398 0.25874817 -0.17459334
000100 87 21 e2 bd d9 cc 66 3e 2c 6a 38 be 84 6a 40 bd
       -0.11041551 0.2253908 -0.18009251 -0.04697658
000110 36 33 22 bc 6e 5d e8 bc 44 f7 f9 3d ba 7c 8e 3d
       -0.009899905 -0.028364863 0.12205365 0.069573835
000120 88 20 d6 be 97 67 cb be 5d b7 ea 3c e0 8b 89 bb
       -0.41821694 -0.3972747 0.028651888 -0.0041975826
000130 94 0c 83 be 83 d0 3e 3e e9 18 db bd 6a c6 94 3c
       -0.25595534 0.18634228 -0.106981106 0.018161017
000140 6c bc a9 3d 1f 53 1b 3e 77 78 95 3d 5b 72 a4 be
       0.08287892 0.15168427 0.072983675 -0.32118496
000150 58 bf c4 3c 6f bb 15 be 0f d1 42 3e a8 ce 24 3e
       0.024017021 -0.14622281 0.19025062 0.16094458
000160 1e d3 89 bd de 31 47 bd 40 5b 3a be 31 4c 2b 3e
       -0.067297205 -0.04863154 -0.18198872 0.16728283
000170 b4 1f 5d be 6b d7 5a 3e 4b bf 62 be 54 db 23 3e
       -0.21594125 0.21371238 -0.22143285 0.16001636
000180 84 86 63 be 4d 2d 37 3e 0c 59 31 be 68 b3 e6 3c
       -0.22219282 0.17888375 -0.17319125 0.02816172
000190 1c b7 90 3e d9 d1 04 3f a0 83 d2 3d 89 1b 11 3d
       0.282647 0.518827 0.10279012 0.03542665
0001a0 cc 62 2e 3d c2 2d 37 be 49 61 e6 3d 6f c4 20 3c
       0.04257469 -0.17888549 0.112490244 0.009812458
0001b0 c2 25 03 3e 23 ba 09 bd 10 50 2e 3d 76 da 23 3c
       0.12807372 -0.03362478 0.042556822 0.010000816
0001c0 0f 3e c1 3e 0c 6a 4c 3e fc 95 09 3f 27 58 aa be
       0.3774266 0.19962329 0.53744483 -0.3327038
0001d0 6b ff e8 3c cb c0 88 3d 7d 69 b6 3d 37 6d cd 3d
       0.028442105 0.06677397 0.08906839 0.10030597
0001e0 90 36 c4 3d 3d 6a d6 3d f2 52 90 bd 22 b6 20 3e
       0.095807195 0.10469482 -0.070470706 0.15694478
0001f0 25 d9 a6 bc ae 38 cd bc 83 5b e8 be 90 07 a8 bc
       -0.020367214 -0.025051441 -0.45382318 -0.020511419
000200 3f 1c 09 bf 75 c9 34 3e b1 04 28 bd d0 fd 5e 3d
       -0.53558725 0.17654975 -0.0410201 0.054441273
000210 fa f4 97 bb 47 37 27 bd 60 70 c6 bd 4e 7f 54 3d
       -0.004637358 -0.0408242 -0.096894026 0.05187922
000220 57 cf 7e 3d 3a 93 e4 3c f7 ff 29 bc c3 16 50 bb
       0.062209453 0.027902234 -0.010375968 -0.0031751848
000230 7c 15 2a be 69 ba b9 3c 4f 83 5f be 3b c9 4f 3e
       -0.16609758 0.022671895 -0.21827434 0.20291607
000240 51 96 c2 bd eb d5 0a be 60 a9 20 3e 15 97 63 be
       -0.09501327 -0.13558166 0.15689611 -0.22225602
000250 b9 fc 92 bd 18 03 f6 3d a0 02 38 3b 8c e5 bc bd
       -0.07177109 0.12012309 0.0028077736 -0.0922347
000260 c0 22 e0 bc 05 48 de 3d ce 1d 99 bd cc 14 2f 3e
       -0.02736032 0.108535804 -0.07476388 0.17097777
000270 ea 57 e5 be b1 4a 4d bd 15 30 80 be 94 13 19 bd
       -0.44793636 -0.05012006 -0.25036684 -0.037372187
000280 86 bf c5 3d d6 be 80 3d 84 20 03 3e c1 69 7f 3d
       0.09655671 0.06286399 0.12805372 0.062356714
000290 50 64 06 be c2 98 a9 bd f8 db 8f be 91 78 f7 3d
       -0.13124204 -0.08281089 -0.2809751 0.12083543
0002a0 ae 73 29 bf b2 9f bd 3d 84 eb 86 3e 88 3c a9 be
       -0.6619214 0.09258975 0.2635156 -0.33053994
0002b0 60 f2 39 bd 8d a3 9b 3d d4 20 0a be 9b 3d 18 3e
       -0.045397162 0.07599554 -0.13489085 0.1486725
0002c0 62 64 10 3e 06 0e 38 3e a6 4d 49 3e d7 81 96 3d
       0.14100793 0.179741 0.19658527 0.07348984
0002d0 ef 85 0c 3e c5 a8 a1 bd 3c 7a 01 be e9 b1 0c 3e
       0.13722967 -0.07893518 -0.12644285 0.13739742
0002e0 8f fd de be ba 2c 8b 3d 87 d5 08 be 39 a3 0b 3e
       -0.43552825 0.0679564 -0.13362704 0.13636483
0002f0 73 82 1d be 9f 03 48 be 0c 07 3c 3e 91 22 f3 3c
       -0.15381794 -0.19532631 0.18362063 0.029679568
000300 fd 4c 7b 3d fc cb 68 3d 9e c8 ed bb fe 51 0d 3e
       0.06135272 0.05683516 -0.0072565814 0.13800809
000310 c2 3d b2 bc 53 d7 8b bd 47 bc b8 be 7f 6e c0 be
       -0.021757964 -0.06828179 -0.36081144 -0.37584302
000320 37 d3 54 3d 80 ea 85 bd c3 3b 30 bc 63 f9 36 bc
       0.051959243 -0.06538868 -0.010756436 -0.011167857
000330 8f 70 e5 bd 9f 5a b0 bd 72 2a b7 3d 3d 13 9c be
       -0.112031095 -0.086110346 0.08943643 -0.30483428
000340 b3 38 66 3e 95 a9 d6 3d 9d fe 81 be 7d 4f 55 be
       0.22482567 0.10481564 -0.25389567 -0.20831104
000350 38 10 e9 be b7 c8 21 be 2b 3d 72 3d 4a 43 49 3d
       -0.45520186 -0.15799223 0.059140366 0.049136437
000360 b2 25 1f 3e 61 c1 2f 3e a9 a7 38 3e d0 11 33 bb
       0.15541723 0.17163612 0.18032707 -0.002732385
000370 82 2b b4 3d 61 1c fd bd ba 77 ba bd 3c be 26 be
       0.08797361 -0.123589285 -0.09104867 -0.16283506
000380 ca 1e c2 3e 4f bc e0 b9 1a 92 fb 3e 71 e3 64 bd
       0.37914115 -0.0004286491 0.49134904 -0.055880968
000390 d9 88 f1 3c 36 15 7b 3d 6e e0 f9 bd cb 34 33 be
       0.0294842 0.061299525 -0.1220101 -0.17500608
0003a0 4e f4 51 be 42 dd 73 bb 93 3d 1c 3e ea 0c 64 be
       -0.20503351 -0.0037210737 0.15257864 -0.22270551
0003b0 00 8f 39 3e c1 9d 27 be f9 c8 f9 be 3c 11 6f bd
       0.18120956 -0.16368772 -0.48786142 -0.058366045
0003c0 ba b5 a6 be bf bb 0c 3f b6 34 83 bd a6 23 da 3c
       -0.3256052 0.5497398 -0.06406538 0.026628327
0003d0 40 bb c6 bd ba 55 3b 3d 77 83 4f 3c 84 58 a3 3c
       -0.09703684 0.045736052 0.012665621 0.019939668
0003e0 3b 39 a2 3d 54 e9 b2 bc eb c1 10 be 74 2c a7 bd
       0.07921072 -0.021839775 -0.14136474 -0.08162776
0003f0 21 e0 b0 3e 98 c7 23 bd 3e 80 52 be e0 be 19 3f
       0.34545997 -0.03998527 -0.20556733 0.6005688

fc.0.bias f4 [64]
000000 9a 46 5f 3e 79 5c dd bc a3 1b 9d 3e 38 98 4a 3d
       0.21804276 -0.027021633 0.30685148 0.049461573
000010 3e fa 07 3e 12 1d 4e bd 48 bd b7 bd 3f 14 a8 3e
       0.13279054 -0.050320692 -0.089716494 0.32827947
000020 cb 08 ad 3e 84 fb 0f 3e 4e da 62 be 96 e8 1b be
       0.3379577 0.1406079 -0.22153589 -0.15225443
000030 fd 2d 14 bc 60 f2 95 3c 99 2c 3f 3d af c2 fd bd
       -0.009044168 0.01830405 0.04667339 -0.123906486
000040 1e fc 21 3e de be b6 3c 90 44 82 3e 9d 9c 5c bd
       0.15818831 0.02230781 0.25442934 -0.053860296
000050 b2 74 30 3e 4c 54 c0 3e 08 1c 73 3b a3 a9 d7 bd
       0.17232016 0.37564313 0.0037095565 -0.105304025
000060 15 ea 89 bd f5 b9 a0 3d 0d be c3 3e ae d1 d0 3e
       -0.06734101 0.078479685 0.38230935 0.40784973
000070 ef a0 67 3d 47 47 ed bd 3d 0f e1 3d cd 81 37 3e
       0.056549963 -0.11585861 0.109892346 0.17920609
000080 e0 df 0f 3e c2 f1 b3 bd a3 bb d5 3d dc f9 77 3e
       0.14050245 -0.08786346 0.104361795 0.24216408
000090 c6 4b 81 3e 8d fe 31 3d e8 56 cd bd aa 24 c4 3d
       0.25253123 0.04345565 -0.10026342 0.095773056
0000a0 3a 95 70 3d 70 6d 4f 3e a9 08 c4 3e b4 44 ac 3e
       0.058736064 0.20256591 0.38287857 0.33646166
0000b0 57 1e 26 3d ed 62 3d 3e d8 9c ae 3e 7c df 3e 3e
       0.040556278 0.18494768 0.34104037 0.1863994
0000c0 4f 14 97 3d 2d 14 f4 3d 02 c0 1c 3f 86 1d ed 3e
       0.073769204 0.11917911 0.6123048 0.46311587
0000d0 b0 2f 1a 3e a3 e4 87 3e f1 76 80 3e 4d f9 04 3e
       0.15057254 0.26541623 0.25090745 0.12985726
0000e0 5b de 15 3e a4 81 44 3c a7 62 1b be 3a 69 29 3e
       0.14635603 0.011993799 -0.15174352 0.16544047
0000f0 a9 d0 26 3e e2 ac 30 3e 7b 66 ca 3d e7 5a 89 bd
       0.16290535 0.1725345 0.09882828 -0.06706791

fc.2.weight f4 [32, 64]
000000 30 e4 9b 3d c0 cb 3d 3e b1 9a 40 3e 42 e1 19 be
       0.07611883 0.18534756 0.1880901 -0.15027335
000010 2e c4 b8 3c 08 c2 2f be f2 86 60 bd 85 e2 92 3d
       0.022554483 -0.17163861 -0.054816194 0.071721114
000020 f7 31 0f be b7 17 a7 3e ee 67 95 3b 11 3b 25 3a
       -0.13983904 0.3263528 0.0045595085 0.0006303052
000030 8c d1 20 3d b6 0f 46 3e 0a ae 8a bd c8 06 c6 3d
       0.03926234 0.19341931 -0.067714766 0.09669262
000040 05 a0 39 be eb 01 b3 3e 5f 6a 33 3e 5b 2e 54 be
       -0.18127449 0.349624 0.17521046 -0.20720808
000050 af ef ad 3d d7 e0 d2 bd 7b 4a 9d 3d 83 48 0c 3e
       0.08492982 -0.10296791 0.07680222 0.13699536
000060 17 86 06 be d9 2e 88 3e 36 54 88 be 1b aa 4a 3e
       -0.13137089 0.26598242 -0.26626748 0.19791453
000070 c2 77 56 be 51 39 22 bc 82 1b 7f 3d 1a 61 2f 3c
       -0.20944121 -0.009901361 0.062282093 0.010704303
000080 63 e4 bf bc e2 ef 24 3d f4 f7 e5 bd b2 2b 77 bc
       -0.023424333 0.040267833 -0.11228934 -0.015086101
000090 40 1f dd 3c 75 5c 26 be fa 83 30 3b 38 96 f5 3c
       0.02699244 -0.16246207 0.0026934133 0.029978856
0000a0 65 69 eb bd 8c 39 a5 bc 10 0a 07 be 69 27 2d be
       -0.11494712 -0.020169042 -0.13187432 -0.16909565
0000b0 0b 63 e7 bd 88 12 c2 3d c6 cd 8c be 38 9d 52 be
       -0.11298188 0.09476191 -0.27500743 -0.20567787
0000c0 38 0b 0b be a9 2c c5 bd 1a 36 75 3e e5 f6 a1 3e
       -0.13578498 -0.09627659 0.2394642 0.31633678
0000d0 07 ba 29 be 8a af 86 bd 4f 49 75 be e4 8c 64 3d
       -0.1657487 -0.0657645 -0.23953746 0.055798426
0000e0 41 0a 88 be e7 49 9c 3e 99 69 a0 3d 2e 1d 61 3e
       -0.26570323 0.30525133 0.07832641 0.21983787
0000f0 db 40 30 3e eb 59 9c 3d c5 00 8d 3e 71 53 5c be
       0.1721224 0.07634338 0.2753965 -0.21516205
000100 bd 1b 85 bd 23 82 77 bb 11 1e 05 3e db 65 84 3d
       -0.06499431 -0.0037766777 0.1299975 0.0646474
000110 ad cd 42 be 3b 36 bc 3c 0a ce 07 3d 83 3b d9 bd
       -0.19023772 0.022975078 0.03315548 -0.10607054
000120 c2 5c ed 3c e7 49 68 3e 79 78 d7 3d e0 db 17 3e
       0.028974894 0.22684442 0.10521025 0.1482997
000130 90 46 dc 36 b0 da 81 3d df 59 20 3e 8f a1 fa 3d
       6.5647255e-06 0.063405395 0.15659283 0.12237846
000140 ac e0 aa 3d 02 c8 2e 3e 8a 45 a7 be 42 76 08 bd
       0.08343634 0.17068484 -0.32670242 -0.033315904
000150 8a b7 97 3d 17 13 33 bd be 82 12 be 64 03 40 bd
       0.07408054 -0.043719377 -0.14307687 -0.046878234
000160 f1 2e 42 3e 40 bb 9c 3e ba 90 a2 3d 3b 4a 59 bd
       0.18963219 0.3061161 0.07937761 -0.053049307
000170 df d8 41 3e 55 23 ac 3d 2e de 41 be 76 e8 4a be
       0.18930386 0.084051766 -0.18932411 -0.1981524
000180 dd 03 00 3e 2f ab 2c 3d 58 10 28 3e dd 0a 0f 3e
       0.12501474 0.04215544 0.16412485 0.13968988
000190 71 ad 41 bc c5 9b cc 3d 57 47 93 3d 07 62 cf 3d
       -0.011821137 0.09990648 0.07191341 0.10126119
0001a0 df 52 08 bd 26 e2 82 bd ed 7a 57 3d b9 a8 c4 3d
       -0.033282157 -0.06390791 0.052607466 0.09602494
0001b0 8f f5 0d bd b7 2d 18 3e 3b 74 6e 3e f6 59 c4 bb
       -0.03465801 0.14861189 0.23286526 -0.0059921695
0001c0 2b e5 42 bd 8c 6c 5a 3e 42 8c a7 bd 8c 21 74 3d
       -0.047581833 0.2133047 -0.08181049 0.059602305
0001d0 5a 4a 7e 3e d3 a5 32 3e c7 62 4f 3e 23 8f 1d bd
       0.2483305 0.1744607 0.20252524 -0.038466584
0001e0 df 54 d9 3d 74 3f 22 39 b9 44 be bd 03 6a 3a 3e
       0.10611891 0.00015473162 -0.092904516 0.18204503
0001f0 2d 80 64 bd 51 4d 22 3e 37 8a 12 3e 6a 0c bc bd
       -0.0557863 0.15849806 0.14310537 -0.09182055
000200 93 ea d1 bd 5d ef 81 be 32 a5 aa be 49 9d 94 3e
       -0.102498196 -0.25377932 -0.3332916 0.2902625
000210 41 39 42 be 65 2b 08 3e 7a 37 96 3c 1a c0 dd bd
       -0.18967153 0.13297804 0.018337 -0.10827656
000220 19 1b c5 3e 2d 04 81 be 69 b9 03 bb 9f bd 19 3c
       0.38497236 -0.25198498 -0.0020099527 0.009383588
000230 8a 9e 32 be f5 13 7a bd 9c 0c cb 3d 75 45 16 bd
       -0.1744329 -0.06105419 0.099145144 -0.036687333
000240 e8 0f a2 3e 55 e5 35 be 05 71 e5 be 76 30 5a 3e
       0.3165276 -0.17763264 -0.4481279 0.21307549
000250 b8 9e 2f be 3b 81 13 3e bc 8b ef bc a3 5c 94 be
       -0.1715039 0.14404766 -0.029241435 -0.28976926
000260 74 83 16 3e 54 ae 32 be 58 81 02 3e cd a2 94 be
       0.14698583 -0.17449313 0.12744653 -0.29030457
000270 d3 aa d1 3e 06 88 02 bd 22 30 03 bf fe 42 a5 bc
       0.4095064 -0.031868003 -0.5124532 -0.020173546
000280 e4 ef 26 3b 75 6b a0 bd ef af 2f 3d 12 e8 1e be
       0.0025472576 -0.07832996 0.042892393 -0.15518215
000290 8c 64 a3 3a 1a 40 96 3e 32 52 71 3e 7f b7 14 bd
       0.0012465878 0.2934578 0.23566511 -0.036307808
0002a0 8d a1 8a 3e 4d 34 9d bd a8 d5 2b 3e b7 9f 87 3e
       0.27076378 -0.07675991 0.16780722 0.2648904
0002b0 89 a4 e4 bd ae 41 6a be 34 42 7c 3e 9d 58 7b 3e
       -0.11164195 -0.22876617 0.2463463 0.24545522
0002c0 6e d1 d4 bc 48 b9 8f 3e de 54 20 bf 0b d0 04 bf
       -0.02597877 0.28071046 -0.626295 -0.5187995
0002d0 00 e9 2e 3e 1d a9 37 3e a8 e4 95 3d 8c 7c 11 be
       0.1708107 0.17935605 0.07319003 -0.14207667
0002e0 04 05 6a 3e da a6 a8 be ae 12 00 3a 2d a4 04 be
       0.22853476 -0.32939798 0.0004885596 -0.12953253
0002f0 db 87 36 be 62 62 98 be 4d e4 85 be f4 44 fa 3d
       -0.17825262 -0.2976256 -0.26150742 0.12220183
000300 dd 40 9c be 91 5d 4c 3e c1 e8 4e 3e 1a 81 0a be
       -0.30518237 0.19957568 0.20205976 -0.13525811
000310 72 08 47 be e9 59 6f be 61 e0 b4 bd 65 58 ea bd
       -0.19436815 -0.23374142 -0.088318594 -0.11442641
000320 52 28 63 bd 5f df 16 3e 43 e9 40 3e b5 21 9d bc
       -0.055458374 0.14733647 0.18838982 -0.019181112
000330 e3 8d f0 bd 79 0b ae 3d 4e c0 6a be 73 de 6d 3d
       -0.11745813 0.08498282 -0.22924921 0.058073472
000340 d1 5f 86 be 9e 26 d6 3d 02 83 09 3e b0 55 30 be
       -0.26244977 0.104565844 0.13428882 -0.17220187
000350 a5 15 fc 3b fc 94 89 be 80 d5 15 be df 92 a3 3d
       0.00769301 -0.2687148 -0.14632225 0.07986998
000360 e6 8c 31 be 4a ba ad 3e d8 97 96 be 99 3d 2f 3c
       -0.17338905 0.3393119 -0.29412723 0.010695838
000370 5e 6f 52 be 99 02 7e be cc 0b e9 3d 09 1b 31 be
       -0.20550296 -0.24805678 0.11379203 -0.1729547
000380 bb 9f 13 be 59 f8 d1 3c c4 a8 0b 3d 9a b9 3f 3d
       -0.14416401 0.025631117 0.034096494 0.046807863
000390 09 b3 97 3d b3 63 2e be be 09 08 bd 58 7d 17 be
       0.07407195 -0.1703022 -0.033212416 -0.14793909
0003a0 c7 d1 9e bd eb 68 8c be f0 c1 25 be 77 0e 83 be
       -0.077548556 -0.27423796 -0.16187263 -0.25596973
0003b0 c1 e3 b9 bd 07 68 92 3d 5a ee 91 be a2 2a 48 be
       -0.09076644 0.07148748 -0.2850216 -0.19547513
0003c0 b2 c8 b0 be 46 f3 48 be 5b f3 04 3e 24 77 41 3e
       -0.34528118 -0.19624051 0.12983458 0.18893105
0003d0 74 3c 43 be 09 38 1d bd 30 b3 cf be b7 93 c9 bd
       -0.1906603 -0.038383517 -0.40566397 -0.098426275
0003e0 9d fe 03 be 8f ea 9c 3e 74 00 c2 3d 31 a9 88 3e
       -0.12890096 0.30647704 0.09472743 0.26691583
0003f0 ae 62 92 bd 5c 0f 22 3e ac f2 a7 3e c7 b3 84 be
       -0.07147728 0.15826172 0.3280233 -0.2591841

fc.2.bias f4 [32]
000000 10 a4 f5 3d 16 a4 84 bd d1 4f e4 3c 09 d0 08 be
       0.11994183 -0.064766094 0.02787009 -0.13360609
000010 de 46 20 3d 6d 20 8f 3b 49 26 c7 bc d6 09 94 3d
       0.039130084 0.004367879 -0.024310248 0.072284386
000020 14 b3 b2 3b 2b 68 d1 3b e4 cb 8e 3c 22 e4 a2 bb
       0.0054534767 0.0063905916 0.017431207 -0.004971043
000030 70 0e d8 3d 50 6b 4a 3d 79 10 e2 3d 0c e2 af 3c
       0.10549629 0.049418747 0.11038298 0.021470092
000040 20 8b 64 3c da c4 8f bd 6c 7f 98 bc 31 67 0c 3e
       0.013949186 -0.07019968 -0.018615447 0.1371124
000050 95 f0 6c 3d 83 dc 29 3c e0 88 b4 3d 4c 5d f1 3c
       0.057846624 0.0103675155 0.08815169 0.029463433
000060 2d d5 68 bb 0e be 88 3d 3e 72 63 3d 59 97 80 3d
       -0.0035527453 0.06676875 0.05552887 0.06278867
000070 46 d7 8f 3d 42 77 95 3c 7d 52 00 bd 86 81 97 bc
       0.07023482 0.018245343 -0.031328667 -0.018494379

fc.4.weight f4 [3, 32]
000000 c8 a6 6d be f3 52 80 3e 9f 91 c0 be 6a b6 64 be
       -0.23208153 0.25063285 -0.376111 -0.2233521
000010 64 a8 3f 3d 91 23 c8 3e 7a 5c ca 3d a6 a6 ac 3e
       0.04679145 0.39089635 0.0988092 0.33720893
000020 a4 b4 6f be 9b fe 21 3e be 64 00 3e a9 71 67 3e
       -0.23408753 0.1581978 0.1253843 0.22601952
000030 5d b7 ae 3d 8b 72 25 be 02 5b 99 bd 7c e6 f6 bd
       0.085310675 -0.16156976 -0.074880615 -0.1205568
000040 33 bd 8b 3e 68 6e 8a 3e ef 1c 76 bc f7 5d 46 3e
       0.27292785 0.27037358 -0.015021547 0.19371782
000050 45 5f 50 3d 39 19 80 bc 12 28 72 3e 2c 02 99 be
       0.050872106 -0.015637027 0.23648098 -0.2988447
000060 07 87 f8 3d 13 8f 0b be 27 1c 8b be 70 d5 82 bd
       0.121351294 -0.13628797 -0.27169916 -0.06388366
000070 df ac f7 3d c6 ac 73 be 89 a6 23 be de 78 a4 3c
       0.120935194 -0.23796377 -0.15981497 0.020077165
000080 07 11 0b bf 48 b4 64 be 4a 15 b6 be 6e f5 0d be
       -0.54322857 -0.22334397 -0.35563117 -0.13863155
000090 43 0b 4f 3e c0 9c aa bd 2a 95 bf 3e 10 3e 0d 3e
       0.2021914 -0.08330679 0.3741849 0.13793206
0000a0 f6 b9 3c be 09 16 32 be bf 8a b0 be 6b 98 ac 3e
       -0.18430313 -0.17391218 -0.34480855 0.33710036
0000b0 e7 b5 47 be 7e 9d 77 3e cc a9 40 3e 29 dd c2 3e
       -0.19502984 0.24181172 0.18814772 0.38059357
0000c0 21 2b 0e bf db dc 80 be d2 fa d7 3e 18 e0 39 be
       -0.5553456 -0.251685 0.42183548 -0.18151891
0000d0 d7 81 a6 be 5a 67 d8 3e e4 3d f7 3d 99 8b 6a 3e
       -0.32520935 0.4226635 0.120723516 0.22904815
0000e0 87 ad 59 be 42 98 21 3e 76 e3 25 3d 98 cd 92 3e
       -0.21257602 0.15780738 0.040500127 0.2867248
0000f0 02 a5 7a bc 88 eb 0f bf bd 33 92 3d 59 61 95 3e
       -0.01529813 -0.5621877 0.071387745 0.29175833
000100 0a 0b 7a 3e e3 37 88 3e 39 19 0e 3f 1a 82 07 3f
       0.24418274 0.26605138 0.55507237 0.52932894
000110 db 42 81 3e 7d 6a d7 be 91 15 d9 be f6 2a ae be
       0.2524632 -0.42073432 -0.42399266 -0.34017152
000120 ba 96 ae 3e 11 94 b1 be f0 f3 66 3e f0 09 89 be
       0.3409937 -0.34683278 0.22553992 -0.26765394
000130 2c 2b 6e 3e e6 c3 95 be 26 70 4a 3e a6 bd 58 be
       0.23258656 -0.2925102 0.19769344 -0.21166095
000140 8d 54 90 3d 93 20 41 3e 23 48 eb be d9 f2 5e be
       0.07047377 0.18860082 -0.45953473 -0.21772327
000150 dc 7c 83 3d a8 07 79 be e8 52 1d be d4 59 87 be
       0.064202994 -0.24319327 -0.15363657 -0.2643572
000160 91 9f e2 bc 87 ce c5 3d ca f4 b3 bc 7c 37 ae 3d
       -0.027663978 0.096585326 -0.02196731 0.085066766
000170 af e8 8d bd c3 f4 97 3e 0e 08 6b 3e 0b 7c 9b be
       -0.069291465 0.29678926 0.22952291 -0.30368075

fc.4.bias f4 [3]
000000 07 a2 c2 3c cd e9 d6 bc 4b 13 af bc
       0.023758901 -0.026234532 -0.021371504
